…
2024-01-08 17:29:37.330682: I tensorflow/compiler/xla/stream_executor/cuda/cuda_gpu_executor.cc:894] successful NUMA node read from SysFS had negative value (-1), but there must be at least one NUMA node, so returning NUMA node zero. See more at https://github.com/torvalds/linux/blob/v6.0/Documentation/ABI/testing/sysfs-bus-pci#L344-L355
2024-01-08 17:29:37.332091: I tensorflow/core/common_runtime/gpu/gpu_device.cc:1886] Created device /job:localhost/replica:0/task:0/device:GPU:0 with 2622 MB memory:  -> device: 0, name: NVIDIA GeForce GTX 1650, pci bus id: 0000:01:00.0, compute capability: 7.5
Model: "sequential"
_________________________________________________________________
 Layer (type)                Output Shape              Param #
=================================================================
 dense (Dense)               (None, 16)                192
 dense_1 (Dense)             (None, 16)                272
 dense_2 (Dense)             (None, 16)                272
 dense_3 (Dense)             (None, 16)                272
 dense_4 (Dense)             (None, 1)                 17
=================================================================
Total params: 1025 (4.00 KB)
Trainable params: 1025 (4.00 KB)
Non-trainable params: 0 (0.00 Byte)
_________________________________________________________________
Epoch 1/30
Model: "sequential_1"
_________________________________________________________________
 Layer (type)                Output Shape              Param #
=================================================================
 dense_5 (Dense)             (None, 16)                192
 dense_6 (Dense)             (None, 16)                272
 dense_7 (Dense)             (None, 16)                272
 dense_8 (Dense)             (None, 16)                272
 dense_9 (Dense)             (None, 1)                 17
=================================================================
Total params: 1025 (4.00 KB)
Trainable params: 1025 (4.00 KB)
Non-trainable params: 0 (0.00 Byte)
_________________________________________________________________
2024-01-08 17:33:11.008860: I tensorflow/tsl/platform/default/subprocess.cc:304] Start cannot spawn child process: No such file or directory
Epoch 1/30
2024-01-08 17:33:12.245767: I tensorflow/compiler/xla/service/service.cc:168] XLA service 0x7f99047a99d0 initialized for platform CUDA (this does not guarantee that XLA will be used). Devices:
…
