…
2024-01-08 17:11:07.034567: I tensorflow/core/common_runtime/gpu/gpu_device.cc:1886] Created device /job:localhost/replica:0/task:0/device:GPU:0 with 2622 MB memory:  -> device: 0, name: NVIDIA GeForce GTX 1650, pci bus id: 0000:01:00.0, compute capability: 7.5
2024-01-08 17:11:08.111443: I tensorflow/tsl/platform/default/subprocess.cc:304] Start cannot spawn child process: No such file or directory
Model: "sequential"
_________________________________________________________________
 Layer (type)                Output Shape              Param #
=================================================================
 dense (Dense)               (None, 8)                 96
 dense_1 (Dense)             (None, 8)                 72
 dense_2 (Dense)             (None, 8)                 72
 dense_3 (Dense)             (None, 8)                 72
 dense_4 (Dense)             (None, 1)                 9
=================================================================
Total params: 321 (1.25 KB)
Trainable params: 321 (1.25 KB)
Non-trainable params: 0 (0.00 Byte)
_________________________________________________________________
Epoch 1/30
2024-01-08 17:11:09.387820: I tensorflow/compiler/xla/service/service.cc:168] XLA service 0x7f562cabf4b0 initialized for platform CUDA (this does not guarantee that XLA will be used). Devices:
…
