Model: "sequential"
_________________________________________________________________
 Layer (type)                Output Shape              Param #
=================================================================
 dense (Dense)               (None, 64)                768
 dense_1 (Dense)             (None, 64)                4160
 dense_2 (Dense)             (None, 64)                4160
 dense_3 (Dense)             (None, 64)                4160
 dense_4 (Dense)             (None, 64)                4160
 dense_5 (Dense)             (None, 64)                4160
 dense_6 (Dense)             (None, 64)                4160
 dense_7 (Dense)             (None, 64)                4160
 dense_8 (Dense)             (None, 64)                4160
 dense_9 (Dense)             (None, 64)                4160
 dense_10 (Dense)            (None, 64)                4160
 dense_11 (Dense)            (None, 1)                 65
=================================================================
Total params: 42433 (165.75 KB)
Trainable params: 42433 (165.75 KB)
Non-trainable params: 0 (0.00 Byte)
_________________________________________________________________
Epoch 1/50
2024-01-08 18:17:08.420056: I tensorflow/tsl/platform/default/subprocess.cc:304] Start cannot spawn child process: No such file or directory
2024-01-08 18:17:09.636079: I tensorflow/compiler/xla/service/service.cc:168] XLA service 0x7f212c6e04e0 initialized for platform CUDA (this does not guarantee that XLA will be used). Devices:
…
