Model: "sequential"
_________________________________________________________________
 Layer (type)                Output Shape              Param #
=================================================================
 dense (Dense)               (None, 16)                192
 dense_1 (Dense)             (None, 16)                272
 dense_2 (Dense)             (None, 16)                272
 dense_3 (Dense)             (None, 16)                272
 dense_4 (Dense)             (None, 16)                272
 dense_5 (Dense)             (None, 16)                272
 dense_6 (Dense)             (None, 16)                272
 dense_7 (Dense)             (None, 1)                 17
=================================================================
Total params: 1841 (7.19 KB)
Trainable params: 1841 (7.19 KB)
Non-trainable params: 0 (0.00 Byte)
_________________________________________________________________
Epoch 1/30
2024-01-08 18:08:12.332852: I tensorflow/tsl/platform/default/subprocess.cc:304] Start cannot spawn child process: No such file or directory
2024-01-08 18:08:13.588427: I tensorflow/compiler/xla/service/service.cc:168] XLA service 0x7f1fb1fa6730 initialized for platform CUDA (this does not guarantee that XLA will be used). Devices:
…
