Model: "sequential"
_________________________________________________________________
 Layer (type)                Output Shape              Param #
=================================================================
 dense (Dense)               (None, 16)                192
 dense_1 (Dense)             (None, 32)                544
 dense_2 (Dense)             (None, 32)                1056
 dense_3 (Dense)             (None, 32)                1056
 dense_4 (Dense)             (None, 32)                1056
 dense_5 (Dense)             (None, 32)                1056
 dense_6 (Dense)             (None, 32)                1056
 dense_7 (Dense)             (None, 32)                1056
 dense_8 (Dense)             (None, 32)                1056
 dense_9 (Dense)             (None, 32)                1056
 dense_10 (Dense)            (None, 32)                1056
 dense_11 (Dense)            (None, 1)                 33
=================================================================
Total params: 10273 (40.13 KB)
Trainable params: 10273 (40.13 KB)
Non-trainable params: 0 (0.00 Byte)
_________________________________________________________________
Epoch 1/30
2024-01-08 18:11:22.284674: I tensorflow/tsl/platform/default/subprocess.cc:304] Start cannot spawn child process: No such file or directory
2024-01-08 18:11:23.474564: I tensorflow/compiler/xla/service/service.cc:168] XLA service 0x7fa1b8fc5bb0 initialized for platform CUDA (this does not guarantee that XLA will be used). Devices:
…
